dqn_real_model.pth (torch, 18126 bytes, 6 tensors)

net.0.weight f4 [64, 5]
00000000: 45d1 53be 2346 c3be 6156 4d3f 02a0 533f
00000010: 8be7 5e3f 59e4 d9be 1db8 5dbe c2ec 62c0
00000020: c019 14c0 6b05 b0bf 81bf 63bf 8ef3 d63f
00000030: 2fd4 78be 0cb2 aa3f 5783 3d3f 975d d2be
00000040: de10 9dbf a2a1 88bf 93b7 46c0 7a99 c7be
00000050: b422 bfbe 479d 8d3d dd13 60c0 6319 1ec0
00000060: 0d77 75bf 3696 25c0 6a0c ab3f 359a 2f40
00000070: f6b4 03bf 698e 73bf 50a6 bdbc e0e4 753d
00000080: 00b3 813d a6cd b8be 00f0 e0bd 8b5d 8abf
00000090: ffaa d8c0 526f c4be c432 2b3f 4ded 9f3f
000000a0: e196 3abf 93db 8a3f 80da 6340 4fbb 0040
000000b0: 12d7 da3f e762 0ac0 414a 8e3f dade 4940
000000c0: 2a12 cd3e a331 c2bf f9c4 1abf 89e6 b63e
000000d0: a269 58c0 335e 12bf 2ea0 84be 5bc2 34bf
000000e0: e6d3 da3f 2120 42c0 ed49 c2be babe 963f
000000f0: 3555 2ebf 9e48 8e3e 9fbe 713f 1aca 0b40
00000100: 7d02 b83f 8926 edbf 5be1 2240 5bac 40bf
00000110: 5b3b b03e 60a8 e5bf 6c1c f4bd c017 753d
00000120: c806 0fbd 308b e13d 06a1 2ebe cb87 4abe
00000130: 0158 cfbe 6661 523e 70a7 cb3f 0e97 963f
00000140: 9003 a0be 0408 e83e 8df9 b83f 0ea3 9f3f
00000150: dd95 633f 3562 9ec0 1d01 e6be 213b 31c0
00000160: 8655 acc0 059a 60c0 f078 833d 2d49 103f
00000170: 9f6d 06c0 dae2 03c0 54f7 b73f e831 30bf
00000180: c4fc 6b3f d447 5cc0 b038 39be 3eac d93e
00000190: 7280 32c0 bca5 b33c 3af3 853f f061 423f
000001a0: 766b f9be bad6 2dc0 81bc 483f 5ade ed3f
000001b0: ecc6 833c ec9d 85bf 2ead 8cbe ea9e 0dbd
000001c0: ec97 fb3e b162 a13f 61a2 3f3f 07e5 69bf
000001d0: ee6b 5c3f eb7c 6440 0e11 ef3f 2154 b63f
000001e0: e865 4fbf 81b3 6bc0 2372 ba3d 4243 163f
000001f0: dfe6 4f3f 28fe 7bbe e9c9 0bbf 6a1f 85bf
00000200: 9984 c43f 6d1b bf3f 4069 88bf c7d8 a9c0
00000210: 2543 a1bf 93d5 153f 85f1 883f 1de2 e3bd
00000220: 60de 8b3c 91ea 8f3c bdcc 623d 90f6 24be
00000230: f9f7 9bbe f872 44bd c1d9 493f 29f5 853f
00000240: 22ba 283f e4bf 56bc 5cb2 be3f 2e38 12bf
00000250: f70e 0bc0 fb4d fcbe 20d4 7dbb db8b 3340
00000260: 3ad8 46c0 46f4 fdbf 0bdc 09c0 c031 bdbe
00000270: a051 8f3c 5cb1 dabd 00dc eebb 9013 293d
00000280: a6b2 73be a185 22be 61a8 203e 966e 873f
00000290: 30e6 0a3f dd4c b1be 86a3 1240 de4f 87c0
000002a0: c461 d4bf 9fb9 f4bf 9b47 94be 8be7 783f
000002b0: 3c4d fb3f 2523 cb3f 9aab bd3e 852d 2dbf
000002c0: 71a7 04be c0ac 4bc0 f476 8a3e 47e2 6cbe
000002d0: f243 0fbf d781 d3bf 9055 20c0 69b5 b2bf
000002e0: 9d05 0abd 4866 11bf e6b7 e93f 3549 2640
000002f0: cab7 0040 e588 c33f 5644 143e f796 ac3e
00000300: e9bf f8bf 9359 65c0 749d 1bc0 f578 19bf
00000310: d6f3 b3bc 2c02 29c0 b36e 523f dd48 cf3d
00000320: 1e7a 24bf 310c 6abf 8286 0fc0 1786 08c0
00000330: 202b abbe fe77 26bf 79ae 35be 8e57 aabf
00000340: 0bb0 d9bf d913 e03f 471e 9fbe 67e2 383f
00000350: c98e ca3f 3597 b13f 2d93 333f 54d7 a240
00000360: 5718 0a40 ec3c 353f 0349 8540 c813 ff40
00000370: c91a 8abe 8fb5 79be 6003 af3c ad1d a73f
00000380: 9dc1 953f b675 24bf 2330 07be 196c 013e
00000390: d2a3 ed3f 775d 863f bfb2 aa3c dfc9 8d3f
000003a0: 02db 07bf 6de4 1fc0 4303 2fbe 3bc3 f6bf
000003b0: ef52 e03d 93bc 4e40 754d 7c3f 8e55 7dbf
000003c0: 024e 86be b845 1b3d e1d7 0ec0 de29 62c0
000003d0: 234b 13c0 7697 58be d0d6 e5bd e6fc 89be
000003e0: e178 a53f fbc2 7c3f 7775 98bf dbaa 6dc0
000003f0: 6ac0 bdbf 3c72 883f b337 973f 7fb6 95bf
-0.20685299 -0.38139448 0.8020993 0.8266603 0.87072057 -0.42557028 -0.21652265 -3.5457006
-2.3140717 -1.3751653 -0.88964087 1.6793077 -0.24299692 1.3335586 0.74028534 -0.41087028
-1.2270772 -1.0674326 -3.1049545 -0.3898428 -0.37331164 0.06914764 -3.5012124 -2.4702995
-0.9588478 -2.5872931 1.3363163 2.743787 -0.51448 -0.95139176 -0.023150593 0.060032725
0.0633297 -0.36094397 -0.10983276 -1.0809797 -6.7708735 -0.3836618 0.6687434 1.2494293
-0.7288647 1.0848259 3.5602112 2.0114324 1.7096884 -2.1622865 1.111641 3.1542268
0.4005292 -1.5171398 -0.60456806 0.3572276 -3.3814473 -0.57174987 -0.25903457 -0.7060906
1.7095916 -3.033211 -0.37947026 1.1776955 -0.68098766 0.27789778 0.9443149 2.1842103
1.4375759 -1.8527385 2.5450046 -0.75262994 0.34420285 -1.7942009 -0.119194835 0.059837103
-0.034918576 0.11012876 -0.17053613 -0.19778363 -0.4049683 0.20544967 1.5910473 1.1764848
-0.31252718 0.45318615 1.4451157 1.2471635 0.8890055 -4.949488 -0.44922724 -2.769234
-5.38544 -3.5094006 0.06419551 0.5636166 -2.1004407 -2.060721 1.4372354 -0.6882615
0.92182565 -3.441884 -0.18088031 0.42514223 -2.7890897 0.021929614 1.0464852 0.7593069
-0.487148 -2.7162309 0.78412634 1.8583481 0.016086064 -1.0438819 -0.27475876 -0.03457538
0.49139345 1.2608243 0.74857146 -0.91365093 0.8610219 3.5701244 1.867708 1.4244424
-0.8101487 -3.682831 0.09103801 0.5869638 0.81211656 -0.24608672 -0.54604965 -1.0400212
1.5352966 1.4930245 -1.065712 -5.307712 -1.2598616 0.58529013 1.0698706 -0.11127112
0.01707381 0.017567905 0.055371035 -0.16109681 -0.30462626 -0.047961205 0.7884789 1.0465442
0.65909016 -0.013107274 1.4898181 -0.57116973 -2.1727884 -0.49278244 -0.0038731173 2.805411
-3.1069474 -1.9840171 -2.1540554 -0.3695202 0.017494977 -0.1067836 -0.0072894096 0.041278422
-0.23798618 -0.15871288 0.15689231 1.0580623 0.5425749 -0.34628955 2.2912307 -4.2284994
-1.6592336 -1.9119147 -0.2896088 0.97228307 1.9632945 1.58701 0.37044984 -0.6764758
-0.12954499 -3.1824188 0.2704388 -0.23133193 -0.5596305 -1.6523999 -2.5052223 -1.3961612
-0.03369676 -0.56796694 1.8259246 2.5982182 2.0112176 1.5276152 0.14479193 0.33708927
-1.9433566 -3.5835922 -2.4314852 -0.5995019 -0.021966856 -2.6407576 0.82200164 0.101213194
-0.64248836 -0.9142485 -2.2425847 -2.1331842 -0.3343134 -0.65026844 -0.17742337 -1.330797
-1.7006849 1.7506057 -0.31077787 0.7222046 1.5824825 1.387427 0.7014645 5.088785
2.1577356 0.70796084 4.1651626 7.9711647 -0.2697356 -0.24385665 0.021363914 1.3055931
1.1699711 -0.6424211 -0.13201956 0.12638892 1.8565619 1.0497273 0.020837186 1.1077231
-0.53068554 -2.498317 -0.17091088 -1.927833 0.10953318 3.2302597 0.9855569 -0.9895867
-0.2623139 0.037908286 -2.2319262 -3.5338054 -2.301461 -0.21151528 -0.11222613 -0.2695076
1.2927514 0.98735017 -1.1910847 -3.7135532 -1.4824345 1.0659862 1.1813873 -1.1696318

net.0.bias f4 [64]
00000000: 8cb8 9f40 acae 9e40 6a53 c740 4a14 9640
00000010: f159 9e40 b2e3 7540 c6bc 52be 312a b040
00000020: fc59 0741 3bc0 8940 e75d 9840 7d54 9040
00000030: 70f8 9640 9072 5240 e52e 4abe ed2f 9d40
00000040: ec16 c240 acb7 9940 a751 39be 722a 9940
00000050: 7e62 9f40 ad01 9740 e877 b340 c543 f940
00000060: a1ff ba40 93eb ae40 f082 b140 8467 acbd
00000070: 2948 c240 a74f c140 f357 a140 483d bebe
00000080: 2c55 a340 e66a a640 db8f a240 d3ee b940
00000090: 6d7f 9840 c179 bd40 a007 ac40 0cf1 af40
000000a0: f425 b640 4413 7240 4332 ba40 1058 f740
000000b0: 8fe9 ba40 1792 9940 a444 af40 8fcc 6c40
000000c0: 07ec a340 e4ac 9a40 d018 b640 9a40 ea40
000000d0: 5767 be40 6c20 9540 dcbc 7640 fc92 bd40
000000e0: 7bca 9c40 fab9 8940 29b4 a940 44a6 a840
000000f0: 29ee 9240 9381 09be 3f6b ac40 51b6 b440
4.9912777 4.9588223 6.2289324 4.6899767 4.948479 3.8420224 -0.20579824 5.5051503
8.459469 4.3047156 4.7614627 4.5103135 4.717827 3.2882423 -0.19744451 4.9121003
6.065298 4.803671 -0.18097554 4.7864313 4.980773 4.7189546 5.608387 7.7895226
5.8437047 5.4662566 5.5472336 -0.084181815 6.0713086 6.040973 5.041986 -0.3715613
5.104147 5.200549 5.0800605 5.8104033 4.765555 5.9211125 5.375931 5.4981747
5.692133 3.7824259 5.8186355 7.7295 5.8410106 4.799083 5.477129 3.6999853
5.122562 4.833605 5.690529 7.320386 5.9501147 4.6602077 3.855277 5.9241924
4.899717 4.303952 5.303242 5.270296 4.5915723 -0.13428335 5.3880916 5.6472554

net.2.weight f4 [32, 64]
00000000: 98b0 72bd 3011 61bd 0e1f 31bb 38e3 a0bc
00000010: f066 563c 1445 84bd 509f 773c d21a 9bbd
00000020: 1070 d43c e86a 9bbd 8e91 16bd 74e2 de3c
00000030: eae4 5bbc 600a 81bd 9ee3 83bd f99b 58bd
00000040: 4471 fbbd d464 4ebd 60dd a6bd eb6e a4bd
00000050: 765c 81bc 37d2 4f3c ea41 543d 94a3 62bd
00000060: a598 cc3c 4727 b73d 7462 793d 784c 81bd
00000070: 64a3 cd3b 9e1c e1bd e88d 2d3d f89a 18bd
00000080: e095 dabd 50bb 8abd 2423 813d 4916 c23d
00000090: c5b6 d53c fd66 eb3d d06d 8bbd 2e43 473d
000000a0: 980e eebc d921 ac3c e0c8 cabd 53e9 00be
000000b0: 0184 c4bd 1278 9ebb 029a acbd d084 703d
000000c0: dc17 56bd 415c bb3d faf0 853d ceea 9f3d
000000d0: f86d e5bd 40f7 f6bd 1643 e7bd e8ab b83c
000000e0: 4e9d c3bb 6aab e53d 1fc1 3ebd fcf7 c6bd
000000f0: b45b 18bd 64f0 3fbd 24df 823d 3bac bdbc
00000100: a1a9 2740 9e94 8440 cdae 8940 1b38 7840
00000110: 1070 6e40 8c93 ad40 c0bd 03bc 6047 bc40
00000120: d64e 09c1 eeb0 c940 de4c 4f40 8139 5340
00000130: 5de6 6140 affa 8f40 82ce a5bd b2ce 2d40
00000140: 9279 8640 4bbe d4c0 bad3 55c0 2784 7440
00000150: 47f0 af40 0e7c b940 55a0 2d40 6f0e 0ac1
00000160: bc7b 7140 adbb 3f40 7a8a bc40 fb4b 2cbc
00000170: 12be 5440 ecca 9640 041c 8640 4092 3dbd
00000180: 94cf 2040 7b48 9040 8d24 8040 3daf 7940
00000190: 2e5e 9640 481c a940 777c 9140 78ec 5940
000001a0: a76c 9940 de0b 3340 b863 7840 bb34 3dbf
000001b0: 8dd9 5d40 d7a0 4a40 9558 4c40 dacd a940
000001c0: 5623 8a40 7afd 0c40 e32a 9b40 fb2f 0bc1
000001d0: 6d21 9040 6618 5740 b840 b540 8760 a840
000001e0: 62a8 c040 91e5 aa40 3078 8040 e2cf 0540
000001f0: 6455 6140 1449 e6be ecdc 8340 d46c 2040
00000200: eb8a 4240 46fe 6840 24c8 4c40 afe3 3e40
00000210: 93d1 6a40 b583 a040 80b7 853d 60a8 b140
00000220: 711f ecc0 3475 b640 a339 4e40 117a 5640
00000230: c9db 8640 cd79 a940 887c 873d 8207 4340
00000240: 400f 9a40 dee6 d8c0 c399 24c0 a00f 7540
00000250: 4f5a 9140 bd0f a640 8136 3a40 dd36 e1c0
00000260: c811 7d40 966a 6b40 9fc6 ad40 2c48 5abc
00000270: f6c6 6640 e40e 5840 e0bd 0140 4016 263b
00000280: 790a 3440 65dc 0d40 9eda 8240 b904 8540
00000290: 017a 8940 e364 b140 9c38 3040 5137 7040
000002a0: 42da 8f40 d6a0 7740 386f 8e40 b748 3abf
000002b0: f803 6d40 d8cb 6440 75c5 0e40 fa37 9840
000002c0: 1919 3d40 9fd8 2740 8ef2 a540 3f8e d8c0
000002d0: d5a7 a540 b181 7e40 b049 9840 9b3d b140
000002e0: 593a ad40 99e5 9740 a499 5e40 3700 2e40
000002f0: 67e7 2d40 ec66 47be 99dc 7f40 cc2c 3f40
00000300: cd7f 8d3f a380 3240 69c2 2340 e4b0 1440
00000310: 3e81 2740 b053 9540 600e 4f3c be0d a440
00000320: a4e7 2fc1 6f4a 9e40 a825 e73f 2c0a c63f
00000330: facc ee3f 47ea 8a40 68e1 453d f912 a03f
00000340: 40bd 5b40 44db e9c0 8fc8 67c0 30c8 1940
00000350: 6b89 8d40 2722 9840 7efb 813f 09e5 2cc1
00000360: 62f1 1f40 b4af b33f 1a67 a640 ebbf a7bd
00000370: 4499 0540 4f4b 4540 6719 1f40 f099 49bd
00000380: 4859 be3f 9930 2c40 ad2f 4740 0575 2f40
00000390: 89ca 7140 bdbc 8240 7a58 4c40 1135 0340
000003a0: 8ed6 7940 c746 ae3f 6848 4340 12a1 1cbf
000003b0: 05af 1240 f344 b33f f91a bd3f 89c0 8b40
000003c0: 1af6 3d40 ace6 5e3f e0a5 5b40 dc6e 29c1
000003d0: ce51 6640 7a62 ec3f 46a7 8b40 2646 8240
000003e0: 6a53 9740 104d 8640 c359 f03f be18 733f
000003f0: 571e 0040 5d2a 2bbe a369 4140 393c 8d3f
-0.059250444 -0.054948032 -0.0027026567 -0.019639596 0.013086066 -0.06458488 0.015113667 -0.07573475
0.025932342 -0.0758875 -0.036759906 0.02720759 -0.013421277 -0.06300807 -0.06439899 -0.052883122
-0.12277463 -0.050389126 -0.08147693 -0.080289684 -0.01579116 0.0126843965 0.051820673 -0.05533178
0.02497513 0.089430384 0.060884908 -0.063134134 0.006275581 -0.109917864 0.04237166 -0.037257165
-0.10673118 -0.06774008 0.06305531 0.09476907 0.026088128 0.11494253 -0.068080544 0.048648052
-0.029059693 0.021012234 -0.09901595 -0.12589006 -0.0959549 -0.004836091 -0.08427812 0.05872041
-0.052268848 0.091484554 0.06540103 0.07808457 -0.112026155 -0.12058878 -0.112920925 0.022542909
-0.00596968 0.11214335 -0.046570893 -0.09715268 -0.03719683 -0.046860114 0.06390217 -0.023153415
2.6197283 4.1431417 4.302588 3.8784244 3.7255898 5.424261 -0.008040845 5.883713
-8.581747 6.302848 3.2390666 3.3003848 3.5296853 4.499351 -0.08096029 2.7157407
4.20234 -6.648229 -3.3410478 3.820566 5.4980807 5.7963934 2.712911 -8.628524
3.7731771 2.9958298 5.891904 -0.010516162 3.324101 4.7122707 4.19092 -0.046282053
2.5126696 4.5088477 4.004462 3.9013207 4.6989965 5.2847023 4.5464435 3.405058
4.794513 2.7975993 3.8810863 -0.73908585 3.4664032 3.166067 3.1929066 5.3063784
4.3168135 2.202971 4.848985 -8.699214 4.5040803 3.3608642 5.66415 5.261783
6.0205545 5.3405232 4.0146713 2.0908132 3.5208368 -0.4497763 4.120718 2.5066423
3.0397289 3.6405196 3.1997156 2.9826467 3.6690414 5.0160775 0.065291405 5.5518036
-7.378838 5.701807 3.2222679 3.3512003 4.2143292 5.2961183 0.06615549 3.0473332
4.8143616 -6.778182 -2.5718849 3.8290787 4.542274 5.189421 2.9095767 -7.037947
3.9542103 3.6783805 5.4304957 -0.013322871 3.6058936 3.3759089 2.027214 0.0025342852
2.8131392 2.2165768 4.0891867 4.1568265 4.296143 5.5435653 2.7534552 3.7533762
4.495393 3.8691916 4.4510765 -0.72767204 3.7033672 3.5749416 2.2308018 4.756833
2.9546568 2.6225965 5.1858587 -6.767364 5.1767373 3.9766657 4.758995 5.53877
5.4133725 4.746777 3.4781275 2.718763 2.7172487 -0.19472855 3.9978392 2.9871092
1.1054627 2.7891014 2.5587409 2.3232965 2.6172633 4.6664658 0.012637705 5.1266775
-10.994053 4.946586 1.8058367 1.5471854 1.8656304 4.3410983 0.048310667 1.250579
3.433426 -7.308016 -3.6216161 2.4028435 4.4230247 4.754169 1.0154874 -10.805917
2.4991078 1.4037995 5.2000856 -0.08190902 2.0874796 3.0827215 2.4859254 -0.049219072
1.4870996 2.6904662 3.112285 2.7415173 3.7779868 4.0855393 3.1929002 2.050114
3.9037204 1.361535 3.0512943 -0.61183274 2.2919323 1.4005417 1.4773856 4.367253
2.9681458 0.8707073 3.4319992 -10.589565 3.598743 1.8467553 4.364169 4.071063
4.7289324 4.196907 1.8777393 0.9495963 2.0018518 -0.16715379 3.0220726 1.1034003

net.2.bias f4 [32]
00000000: 03fe f4bd 48da b0bf 96a8 80bf 1c5e a3bf
00000010: c6ec 04bf 5be5 6fbf 7c9a a6bf edf3 1ebd
00000020: 849f 5dbf 00cd a7bd 2556 7940 f900 24bf
00000030: 82ca adbd 6d57 86bf 1499 a7bf 7768 b0bf
00000040: f881 7d3f aba3 72bc a69b a93f 8268 f540
00000050: 9442 e140 d408 dbbd afae 81bf fd12 b8bd
00000060: 1f34 8340 3cf4 19bf 22c9 0f41 3700 77bf
00000070: d884 12bf 4b99 58bf d458 f93d 4ddd c0bf
-0.119625114 -1.3816614 -1.0051448 -1.2763095 -0.5192379 -0.93709344 -1.3015895 -0.038806845
-0.86571527 -0.081933975 3.8958828 -0.64063984 -0.08485891 -1.049543 -1.3093591 -1.378188
0.9902644 -0.014809529 1.3250625 7.6690073 7.039377 -0.10695043 -1.0131434 -0.08987997
4.1001124 -0.601383 8.986605 -0.964847 -0.57233953 -0.84608907 0.12175146 -1.5067536

net.4.weight f4 [42, 32]
00000000: 76f6 9b3d 538c 6c3f 8095 6d3f 3cc1 553f
00000010: cb55 703f 39f9 403f 24b8 433f 7413 313d
00000020: 8162 6e3f 6c3b c1bd ac5c 0fc0 521b 6e3f
00000030: ca9d 65bd 1f33 873f d424 253f 95bd 393f
00000040: e8f6 253f c27c 28be 6342 bebf 4d37 1ac0
00000050: 5c75 2dc0 600c d93c e6b8 1f3f 3dba ca3d
00000060: c83f e7bf e27e 693f d81a 23c0 c97c 673f
00000070: 177a 563f bfd0 0b3f 9be3 293f 99d0 653f
00000080: 4068 71bd d01b 6d3f eb8b 2d3f 1cbd 4c3f
00000090: 38aa 603f 27f8 3c3f 651a 1d3f d60e 3cbc
000000a0: 6dd2 4b3f a677 71bb 4031 06c0 7763 843f
000000b0: ce5c f63d dcd8 753f a98e 6e3f 949e 4d3f
000000c0: 2275 123f 49e8 193e 701b ddbf 5cc6 1cc0
000000d0: 3077 0fc0 967b 8e3d 09bd 6f3f 7a2e 62bd
000000e0: f291 00c0 3540 4e3f 6cba 31c0 683d 463f
000000f0: d6ba 5b3f 7d80 713f 6d56 833e f47a 1b3f
00000100: b938 6cbc b7bb 303f 463b 3e3f 00c6 3c3f
00000110: 1578 313f 8b7e 223f 8524 393f 71bd 053e
00000120: 3c5a 4d3f c2b0 c7bd d50d 10c0 8b16 8a3f
00000130: 33cf 223e 04d5 693f eef7 473f 6a12 473f
00000140: b272 4a3f ec19 6e3d c3ac eebf 6b66 09c0
00000150: 9d69 0ec0 0100 17be e2b2 4a3f 8e3c ec3c
00000160: b447 1ac0 a48b 763f 2df7 13c0 1867 553f
00000170: fb3a 653f 368a 053f 8d08 213f 282c 773f
00000180: 92b0 1bbe 54c3 5f3f a87d 073f 0287 9a3f
00000190: 1943 263f 812f 5d3f d104 8e3f b7ef 2a3e
000001a0: 9e5e 483f 98bf fabc 6fda e9bf 2d3d 523f
000001b0: 03f7 193e 1f3e 5f3f 8d84 323f 965c 563f
000001c0: 1f34 363f 3d59 a4bd 0110 d8bf da56 2cc0
000001d0: 64cc 0ac0 c09c 14bc 7ede 813f 99d0 ecbd
000001e0: abcd 02c0 bc60 e93e 300f 26c0 dff8 6a3f
000001f0: 12cf 593f 8277 333f e12c 583f 3075 7d3f
00000200: 5c2b fbbd 7af5 503f 03a3 3b3f 9df0 693f
00000210: db08 4e3f 3f41 6f3f 70bd 2a3f 610f b5bd
00000220: 113c 343f 4369 73bd cc70 15c0 9987 713f
00000230: 52a1 d33d 73b7 4e3f cf94 553f b437 433f
00000240: d32b 1f3f 5082 5e3d b5c2 e6bf 2ef4 1fc0
00000250: 5692 0bc0 6918 18be 14d9 853f c0e9 e8bd
00000260: 93f0 03c0 6a01 603f cd6d 21c0 79be 143f
00000270: 6bbf 733f 5b03 4a3f 7889 863f 5e6f 473f
00000280: 289a a0bc f2af 843f fe5f 293f 91fd 993f
00000290: ec3c 5e3f c63c 533f 61c2 993f b517 ddbd
000002a0: 085a 0f3f a60a ee3c 93ed 01c0 7d2f 863f
000002b0: bf4f 243e 1707 3f3f 1f77 033f 04bd 443f
000002c0: 33ab f83e 4bac d03d ce3b d1bf 9edc 27c0
000002d0: 9686 0dc0 c90b 9b3c d2ad 023f c43a 6ebd
000002e0: 0497 e2bf 4254 e93e e53a 1bc0 7be2 3e3f
000002f0: 0d57 773f 4663 6b3f 349b 523f 00a3 7b3f
00000300: 3f55 00be c534 6e3f c079 153f 23b0 bb3f
00000310: ed53 6d3f a467 943f 681f 923f 1965 b23d
00000320: 16e9 663e e7ae 273c 2d1b 0fc0 96c2 443f
00000330: ff89 003e 0244 553f 4077 3e3f 8fe7 383f
00000340: 900c 013f f825 89bc 89dc 09c0 cd45 1cc0
00000350: c264 0cc0 986a c6bd b58e a93f f204 203e
00000360: fef9 f7bf c02a 2a3f c588 25c0 38fb 883e
00000370: 970e 713f b2c3 463f be50 933f 381b 6d3f
00000380: 02cb 03be 8ff1 6d3f 3e23 4d3f c04e 823f
00000390: 3e90 323f a064 863f 883a 4c3f dcb5 463d
000003a0: 3421 543f 7efd cbbc 5c23 f6bf 0835 873f
000003b0: 7c3d 1e3d 8648 853f b8f0 263f 953e 243f
000003c0: 906c 5a3e 9bfa 55be 4e94 f2bf bf41 28c0
000003d0: 668d 0ac0 5737 ddbd b17e 123f bb81 113e
000003e0: b046 e5bf 412c 473f 3a58 30c0 7dee 703f
000003f0: 68b3 603f 6789 eb3e 2d16 ea3e a0d5 563f
0.07615368 0.9240162 0.92806244 0.8349798 0.9388091 0.75380284 0.7645285 0.043231443
0.93119055 -0.09435162 -2.2400312 0.9301044 -0.056058683 1.0562476 0.6450932 0.72554904
0.64829874 -0.16453841 -1.486401 -2.4096253 -2.710288 0.026495159 0.6239151 0.098988034
-1.806634 0.9120923 -2.5485134 0.9042478 0.83780044 0.54615396 0.66362923 0.8977142
-0.05893731 0.92620564 0.6779162 0.7997606 0.87759733 0.7381615 0.613684 -0.011478147
0.7961796 -0.0036844998 -2.096756 1.0342854 0.1202942 0.96034026 0.9318643 0.80320096
0.5720998 0.15030016 -1.7273998 -2.449607 -2.2416496 0.06957166 0.9364782 -0.055220105
-2.0089078 0.8056672 -2.7770033 0.7743745 0.85831964 0.9433668 0.25651875 0.60734487
-0.014417821 0.6903643 0.74309194 0.73739624 0.69323856 0.6347434 0.7232135 0.13060547
0.8021581 -0.09750511 -2.2508442 1.078813 0.15899353 0.9134066 0.78112686 0.7776247
0.7908126 0.05813019 -1.8646473 -2.146876 -2.2251961 -0.14746095 0.79179204 0.028837468
-2.4106264 0.96306825 -2.3119614 0.83360434 0.8954312 0.5216402 0.6290367 0.9655175
-0.15204075 0.8740742 0.5292611 1.2072451 0.6494613 0.8640061 1.109522 0.16693006
0.78269374 -0.030608937 -1.8269786 0.82124597 0.15035634 0.87204164 0.69733506 0.83735025
0.7117328 -0.08024833 -1.6879884 -2.692801 -2.168725 -0.009070575 1.0146024 -0.11563224
-2.043803 0.45581615 -2.594677 0.91786 0.8508159 0.7010423 0.8444348 0.9900694
-0.122641295 0.8162457 0.7329561 0.9138277 0.8048226 0.9345893 0.6669531 -0.08840824
0.70404154 -0.059426557 -2.3350096 0.9434753 0.10333504 0.8074867 0.8343019 0.7625687
0.62176245 0.054323494 -1.802817 -2.4992785 -2.1808066 -0.14853062 1.0456872 -0.11372709
-2.0615585 0.8750216 -2.5223267 0.5810314 0.95213956 0.7891137 1.0510702 0.7790431
-0.019604757 1.0366194 0.661621 1.2030507 0.8681171 0.8251461 1.2012445 -0.107955374
0.5599675 0.029057812 -2.0301254 1.0483242 0.16046046 0.74620193 0.5135364 0.76850915
0.48568115 0.10189112 -1.6346376 -2.6228404 -2.2113395 0.018926518 0.5104648 -0.058161512
-1.7702336 0.45572096 -2.4254696 0.7456433 0.96617204 0.91948354 0.8226807 0.98295593
-0.12532519 0.9304927 0.583889 1.4663128 0.92706186 1.1594129 1.1415834 0.08710689
0.22549853 0.010234571 -2.2360337 0.76859415 0.12552641 0.83306897 0.7440071 0.7222833
0.50409794 -0.016741738 -2.1540854 -2.4417603 -2.1936498 -0.096883 1.3246676 0.15626886
-1.9373167 0.6647148 -2.5864727 0.26754165 0.9416289 0.7764236 1.1509016 0.9261966
-0.1287041 0.92946714 0.801319 1.0180283 0.69751346 1.0499458 0.7977681 0.04851328
0.82863164 -0.024901148 -1.9229541 1.0563059 0.038632855 1.0412757 0.6521106 0.6415799
0.21330476 -0.2089638 -1.8951509 -2.6290128 -2.1648803 -0.10801571 0.57224566 0.14209644
-1.7912197 0.778019 -2.755385 0.94113904 0.8777375 0.46003267 0.45720044 0.83919716

net.4.bias f4 [42]
00000000: aadf e3be fcd4 09bf 475e 4bbf 8131 07bf
00000010: 4d29 a03c 0c01 883e d30a 70bf 50f6 ecbe
00000020: 63d3 dabf eff3 92be 32a3 e3bf 2236 8abe
00000030: 4958 b43e b14b 11c0 139e e9bf ff43 c0bf
00000040: 33a8 f8bf 5340 cabf 50de 28bf 8914 dabf
00000050: ac2a e8bf d4ea 89bf 4b63 37c0 f8bc 3cc0
00000060: 9f2f 69bf c17d a6bf 9659 c2be 8afd 11c0
00000070: cf40 c2bf 5e6c 19c0 e030 01c0 a430 a1bf
00000080: cb56 adbf d22d 113f 0495 a6bf e46f 41bf
00000090: 285e e1bf ad75 01bf 79b6 cfbf 4b48 36c0
000000a0: 4cde b8bf 08ea 42bf
-0.4450658 -0.53840613 -0.7944073 -0.5280991 0.019550944 0.265633 -0.93766516 -0.46281672
-1.709576 -0.28701732 -1.7784178 -0.26994425 0.35223606 -2.2702448 -1.8251365 -1.5020751
-1.942633 -1.580088 -0.6596422 -1.7037517 -1.8138022 -1.0774789 -2.8654354 -2.9490337
-0.9108829 -1.3007127 -0.37958974 -2.2810998 -1.5176028 -2.3972392 -2.018608 -1.2592969
-1.3542112 0.5671054 -1.3014226 -0.75561357 -1.7606859 -0.50570184 -1.6227561 -2.8481624
-1.444284 -0.76138353
